transformer_weather_model.pth (torch, 282611 bytes, 28 tensors)

input_proj.weight f4 [64, 8]
0	0x3e01f2b7	0.12690245
1	0xbb959dfd	-0.004565953
2	0xbceaaa83	-0.02864576
3	0x3b123377	0.0022308507
4	0xbd764c0d	-0.06013112
5	0x3e495c16	0.19664034
6	0x3dd7da37	0.10539668
7	0x3e2f9ace	0.17148897
8	0x3e89ec6c	0.26938188
9	0x3db92e06	0.090419814
10	0xbe784e90	-0.24248719
11	0x3e465fde	0.19372508
12	0xbdb78aae	-0.08961998
13	0x3e9158d1	0.28388074
14	0xbd5025cf	-0.050817307
15	0xbded4f5e	-0.11587404
16	0x3e0e6cac	0.13908643
17	0xbceecf36	-0.02915154
18	0xbe93de7f	-0.2888069
19	0x3d8dfc97	0.06932943
20	0x3c671e6a	0.014106372
21	0xbec39b6f	-0.38204524
22	0x3e1de9f8	0.15421283
23	0xbeb04ab7	-0.34432003
24	0xbcb0af50	-0.02156797
25	0x3e1ca33c	0.15296644
26	0x3e53d12a	0.20685259
27	0xbe9171c4	-0.2840711
28	0xbe856bc7	-0.2605879
29	0x3de15e71	0.110043414
30	0x3e97b320	0.2962885
31	0xbd93f0aa	-0.072236374
32	0x3ce3d1bb	0.027809968
33	0x3bd0cd8b	0.006372159
34	0x3e9b50df	0.30335137
35	0xbe86eb05	-0.2635118
36	0x3e6a3f18	0.22875631
37	0xbe706efe	-0.2347984
38	0xbdd57c37	-0.10424083
39	0x3d8284e6	0.063730046
40	0x3e96f438	0.294832
41	0x3e3f98d3	0.18710642
42	0x3ebb816e	0.36622185
43	0x3e4a0c27	0.19731198
44	0xbd5dcf97	-0.05415305
45	0x3e17e941	0.14835073
46	0x3d1f69dd	0.03891932
47	0xbe0e125d	-0.13874193
48	0x3cef6a52	0.029225502
49	0x3e4f55ec	0.2024762
50	0x3dca6fa2	0.098845735
51	0x3e544b5c	0.20731872
52	0x3d732bd1	0.05936796
53	0x3e8584b6	0.26077813
54	0xbb2dfde0	-0.0026549026
55	0xbde8b95b	-0.11363479
56	0xbdd67263	-0.10471036
57	0xbd0f2351	-0.03494579
58	0xbe48eddb	-0.19621985
59	0x3cd0af4f	0.025474219
60	0x3e355c64	0.17711025
61	0x3ea30d09	0.31845883
62	0x3e066b4f	0.13126872
63	0xbe1d18d7	-0.15341507
64	0x3e4c7707	0.1996728
65	0x3e56a424	0.20961052
66	0x3eabf675	0.3358647
67	0x3da1d386	0.07901673
68	0xbe932ac4	-0.28743565
69	0x3e8f3ab1	0.27974465
70	0x3dd2f0c4	0.10299829
71	0x3ddd6846	0.10810904
72	0x3d5ed3f6	0.05440136
73	0xbe9121d4	-0.2834612
74	0xbd14e5bc	-0.036351904
75	0x3e26d448	0.16291916
76	0xbdc874c4	-0.09787896
77	0xbdd33a11	-0.1031381
78	0xbe739041	-0.23785497
79	0xbe8bc0b9	-0.27295473
80	0x3e8853d4	0.26626456
81	0xbe1d96d8	-0.15389574
82	0x3e8e2f85	0.2777063
83	0xbddfc150	-0.10925543
84	0xbddd8578	-0.10816473
85	0xbdebd89e	-0.11515926
86	0xbe6beab7	-0.23038755
87	0x3e9c5210	0.3053136
88	0x3e0db201	0.13837434
89	0xbe23d0fa	-0.15997687
90	0xbd1b1d9c	-0.037870035
91	0x3c4845bd	0.012223658
92	0xbe5510fa	-0.20807257
93	0x3eda88f6	0.42682618
94	0x3ce17361	0.027520837
95	0x3de15978	0.11003393
96	0xbc90babd	-0.017667169
97	0xbb8db0a2	-0.004324035
98	0x3d800e4f	0.06252729
99	0x3b10a122	0.00220687
100	0x3d8e2417	0.06940477
101	0xbe1a5e81	-0.15075113
102	0xbe2be2ac	-0.16785687
103	0xbd2b11ba	-0.041764952
104	0xbe13fd82	-0.14452174
105	0x3dac12f2	0.08402051
106	0x3df2a777	0.11848348
107	0x3e0e970b	0.13924806
108	0xbe22139f	-0.15827797
109	0xbbb41672	-0.0054958398
110	0x3ea8a63e	0.32939333
111	0xbea5c0a4	-0.32373536
112	0xbe7816a4	-0.24227387
113	0x3e8b730b	0.27236208
114	0x3e982487	0.29715368
115	0xbcd7aac7	-0.02632655
116	0x3d33bdb2	0.04388208
117	0xbec7f3e7	-0.3905327
118	0xbcd428b3	-0.025898313
119	0xbde1eec5	-0.1103187
120	0xbe1de398	-0.15418851
121	0x3d463ecf	0.048399743
122	0x3d86fd83	0.06591322
123	0x3e5113c1	0.20417692
124	0x3e199153	0.14996843
125	0x3bc01ae8	0.0058625825
126	0xbdebead0	-0.11519396
127	0x3daa0a8b	0.08302792
128	0xbe7e1bbb	-0.24815266
129	0x3c45971f	0.012059956
130	0xbe26a6a9	-0.16274513
131	0xbe3bd61f	-0.183434
132	0x3e868188	0.262707
133	0xbed40e57	-0.4141719
134	0x3e56e300	0.20985031
135	0xbe9ebdb0	-0.31004095
136	0xbd8bcd2d	-0.068262435
137	0xbcca5549	-0.02469887
138	0xbe845bfc	-0.25851429
139	0xbd7c9a08	-0.061670333
140	0x3dc03b09	0.0938626
141	0x3e9e6cef	0.30942485
142	0xbeb4ab1a	-0.3528679
143	0x3de4f147	0.111788325
144	0x3e22275e	0.1583533
145	0x3e921f3b	0.28539452
146	0xbe90946f	-0.28238246
147	0xbe8d801e	-0.27636808
148	0xbdd34881	-0.103165634
149	0xbeb7ee98	-0.3592422
150	0x3be7a23c	0.0070689004
151	0xbe83baba	-0.257284
152	0x3ea597be	0.32342333
153	0x3e2de730	0.16982722
154	0xbd014c29	-0.031566773
155	0xbcd4bd83	-0.025969272
156	0x3e7c54ab	0.24641673
157	0x3e6734db	0.22578757
158	0xbeb029f2	-0.34407002
159	0xbe9c66df	-0.30547234
160	0xbe90d975	-0.28290907
161	0x3e829de7	0.25511095
162	0xbe3d510a	-0.18487945
163	0x3ddccb07	0.10780912
164	0x3e0b8d21	0.13628055
165	0x3e36e1e1	0.17859603
166	0x3da72d5c	0.081629485
167	0x3d8b0c3e	0.067894444
168	0xbc9151a2	-0.01773912
169	0xbe7684fe	-0.2407417
170	0xbe6ee18d	-0.23328228
171	0x3e0851e0	0.13312483
172	0x3d2f8215	0.042848665
173	0x3eab8cb9	0.335058
174	0x3eaebdf0	0.34129286
175	0xbe01cf0b	-0.12676637
176	0xbb97ae27	-0.004628915
177	0x3e97261a	0.29521257
178	0xbea425ce	-0.32060093
179	0x3b61a24d	0.0034429014
180	0xbd980dde	-0.0742452
181	0xbe761e3c	-0.24034971
182	0xbca01a12	-0.019543681
183	0xbd0d73a5	-0.034534115
184	0x3e608593	0.21925955
185	0x3df9b01e	0.12191795
186	0xbe614493	-0.21998815
187	0x3db1badf	0.08678221
188	0xbe01e029	-0.12683167
189	0xbeb3a458	-0.35086322
190	0x3dbfabe2	0.09358956
191	0x3d85d43d	0.06534622
192	0x3e75ff19	0.24023093
193	0xbddd96da	-0.10819788
194	0xbe4737cf	-0.19454883
195	0x3d32cc60	0.04365194
196	0x3e9f1138	0.31067824
197	0xbc511675	-0.012761702
198	0x3d942f43	0.07235577
199	0xbe986c40	-0.29770088
200	0x3e5a0d48	0.21294129
201	0x3e7e34fd	0.24824901
202	0xbe4c47f2	-0.1994932
203	0xbe927e66	-0.2861206
204	0x3e474f4d	0.19463845
205	0x3ed07a55	0.40718332
206	0x3e4fdc4f	0.20298885
207	0xbe865eef	-0.26244304
208	0x3d04f4b3	0.032459926
209	0x3c329c8b	0.010901581
210	0x3e92b0c1	0.28650478
211	0x3d87f3d3	0.06638303
212	0x3e61dac7	0.22056113
213	0x3daac974	0.083392054
214	0x3e357bb7	0.17722975
215	0xbe4798ca	-0.19491878
216	0xbe05de05	-0.13072975
217	0xbe1624a0	-0.14662409
218	0xbea5d336	-0.32387704
219	0xbe63100c	-0.2217409
220	0xbd7c8131	-0.061646644
221	0xbd664749	-0.056220327
222	0xbe90fab5	-0.28316274
223	0x3d3ca478	0.046055287
224	0xbe951727	-0.29119226
225	0xbdbca8be	-0.092118725
226	0xbaac7b20	-0.0013159253
227	0x3e84e0cd	0.2595276
228	0x3d3748b9	0.044747088
229	0xbe3ed627	-0.1863638
230	0xbe54b281	-0.20771219
231	0xbe3a059e	-0.18166205
232	0xbd76fd47	-0.060300138
233	0x3e316b58	0.17326105
234	0x3cdc88f7	0.026920779
235	0x3e35fde6	0.17772636
236	0x3e5ff4a7	0.21870671
237	0x3df2fd68	0.1186474
238	0xbb16db23	-0.00230188
239	0xbc7fa2cc	-0.015602779
240	0xbdb1750c	-0.08664903
241	0x3e54471d	0.20730253
242	0xbe12aa8d	-0.14322872
243	0xbead7a82	-0.3388253
244	0xbd1247d4	-0.035713032
245	0x3ed0b5db	0.40763745
246	0xbe3ec916	-0.18631396
247	0x3e8bd082	0.27307516
248	0x3dd8c8ea	0.10585196
249	0x3cb3a649	0.021929877
250	0xbd025e0a	-0.031827964
251	0x3e8643b2	0.26223522
252	0xbe2edfe9	-0.17077602
253	0xbd9073f9	-0.0705337
254	0xbe9da2ff	-0.3078842
255	0x3d7a97ae	0.06117981

input_proj.bias f4 [64]
0	0x3e4e5526	0.20149669
1	0x3e1ee2da	0.15516225
2	0x3e768f43	0.24078088
3	0x3e4261f4	0.18982679
4	0x3e37c542	0.17946342
5	0xbebe4c90	-0.37167788
6	0x3e95aa86	0.29231662
7	0x3e8b5f58	0.2722118
8	0x3e6b5302	0.22980884
9	0x3e8bbe3c	0.27293575
10	0xbea12024	-0.31469834
11	0x3e22a84a	0.1588451
12	0x3dee13a3	0.11624839
13	0xbec98c81	-0.39365008
14	0xbe5c46ae	-0.21511337
15	0x3ca79327	0.02045591
16	0x3e61e63a	0.2206048
17	0x3dcdec66	0.10054855
18	0xbed35faf	-0.41283938
19	0x3dfb01e0	0.12256217
20	0x3ea11799	0.31463316
21	0x3e591769	0.21200337
22	0x3e25c83d	0.16189666
23	0xbdf83629	-0.12119705
24	0xbea9a1dc	-0.331313
25	0x3e4c7310	0.19965768
26	0x3cc5d2a6	0.024148297
27	0xbe875d98	-0.26438594
28	0xbd4634bc	-0.048390135
29	0x3d937018	0.071991146
30	0x3ea2f87f	0.31830212
31	0xbec50106	-0.38477343
32	0xbe2e45ec	-0.1701886
33	0x3e97c376	0.29641312
34	0xbe1fdafc	-0.1561088
35	0x3e478565	0.1948448
36	0xbe1958cd	-0.14975281
37	0xbd0661c6	-0.032808088
38	0xbebdc220	-0.37062168
39	0x3ec7ecfc	0.39047992
40	0xbde6f785	-0.11277679
41	0x3ec0544f	0.37564322
42	0x3e8e4843	0.27789506
43	0xbde94337	-0.11389773
44	0x3daa32da	0.083104804
45	0xbe6b16fa	-0.22957984
46	0x3e0f5560	0.13997412
47	0x3ea0df44	0.31420338
48	0xbe9a801d	-0.30175868
49	0x3ec3f8a7	0.38275644
50	0x3e7e1cce	0.24815676
51	0x3e7cef95	0.24700768
52	0x3bb65d6b	0.0055653355
53	0xbdcab5fc	-0.09897992
54	0x3dc59b6a	0.096487835
55	0x3e4f0dd9	0.20220126
56	0x3e8b50bf	0.27210042
57	0xbdf7b2e0	-0.120946646
58	0xbeacd127	-0.3375332
59	0xbdf6703b	-0.12033125
60	0xbe894490	-0.26810122
61	0x3dd8df4a	0.10589464
62	0x3e9f7ba2	0.31149012
63	0xbe2a72b6	-0.16645321

transformer.layers.0.self_attn.in_proj_weight f4 [192, 64]
0	0xbe2dcc26	-0.16972408
1	0x3cc4061e	0.023928698
2	0x3e1ad684	0.15120894
3	0xbda1afc4	-0.07894853
4	0x3d3cb85b	0.046074253
5	0x3c9f0fa2	0.019416634
6	0xbd456c60	-0.048199058
7	0xbda71dea	-0.081600025
8	0xbe109bfe	-0.14122006
9	0xbe06ec78	-0.13176143
10	0xbddcce77	-0.107815675
11	0x3db52836	0.0884556
12	0xbcf2bd76	-0.029631358
13	0x3dac0ec4	0.08401254
14	0xbd3347cd	-0.043769646
15	0x3dbed9a4	0.093188554
16	0x3dc3a9f2	0.09553899
17	0xbe3e0dd5	-0.18559964
18	0x3e302cf5	0.1720465
19	0xbe8b24cc	-0.2717651
20	0xbd3fe4a9	-0.046848927
21	0x3cb99853	0.022655642
22	0xbd0f8140	-0.03503537
23	0x3d8d7238	0.06906551
24	0x3d9081c4	0.07056001
25	0x3d79e5d5	0.0610102
26	0xbda7276d	-0.08161817
27	0xbaf0798d	-0.0018346772
28	0x3dd49820	0.10380578
29	0xbd6474c0	-0.055775404
30	0xbe26c9d8	-0.16287935
31	0x3e3221f1	0.1739576
32	0x3dbe79f8	0.093006074
33	0xbcc2d189	-0.023781555
34	0x3e5f385d	0.21798845
35	0xbdacafc4	-0.08431962
36	0xbd5155c4	-0.051107183
37	0xbe3e1804	-0.18563849
38	0x3e16d1dc	0.14728492
39	0xbe3ed226	-0.18634853
40	0xbd4ba461	-0.04971731
41	0xbe2ed3ec	-0.1707303
42	0xbe302731	-0.1720245
43	0xbcd7575a	-0.02628677
44	0xbc6b3a51	-0.014357165
45	0x3e033114	0.1281169
46	0xbd0115ae	-0.031514816
47	0xbdb350b4	-0.08755627
48	0xbdfa7b89	-0.12230594
49	0xbde60cea	-0.11232932
50	0xbdabe56d	-0.08393369
51	0x3d48b10f	0.04899698
52	0xbe176081	-0.14782907
53	0xbc6d57d5	-0.014486273
54	0x3d7ba729	0.061438713
55	0xbdb8c67b	-0.09022232
56	0xbc236401	-0.009972573
57	0x3d38ab57	0.045085277
58	0xbd615bd5	-0.05501922
59	0x3dcda650	0.10041487
60	0xbd9bdaa3	-0.07610061
61	0xbdf475d9	-0.1193654
62	0xbd8292cf	-0.06375658
63	0x3d50fa32	0.051019855
64	0xbdcffa96	-0.10155217
65	0xbe09efe5	-0.13470419
66	0xbea72690	-0.32646608
67	0x3e008012	0.12548855
68	0x3df2478b	0.11830052
69	0x3e333243	0.17499642
70	0x3da43cea	0.08019431
71	0xbdb40dce	-0.087916955
72	0xbd00e4a0	-0.031468034
73	0x3957693c	0.000205432
74	0x3dc202f3	0.09473219
75	0xbda0cb65	-0.078512944
76	0xbe511223	-0.20417075
77	0x3d5f75ee	0.054555826
78	0x3e476609	0.19472517
79	0x3dff438e	0.12464057
80	0xbdb2245b	-0.086983405
81	0x3d091a44	0.033472314
82	0x3e2669a5	0.16251238
83	0x3db99807	0.090622
84	0xbe5f7879	-0.218233
85	0x3b3d1fb1	0.0028858
86	0xbe09740c	-0.13423175
87	0xbcf952d7	-0.030435009
88	0xbd3cd584	-0.046102062
89	0x3dc4de19	0.09612674
90	0x3e880d56	0.26572675
91	0x3dbe3402	0.092872635
92	0x3daf5be3	0.08562448
93	0xbd721d9f	-0.05911028
94	0xbd543dd2	-0.05181677
95	0xbd99bb9a	-0.07506485
96	0x3da238f4	0.07921019
97	0xbe23a173	-0.15979557
98	0xbdd4cb76	-0.103903696
99	0x3d7e6660	0.06210935
100	0xbd17eac7	-0.037089135
101	0xbd83cb84	-0.06435302
102	0x3daa51e6	0.08316402
103	0xbddd6a68	-0.10811311
104	0xbd083b11	-0.033259455
105	0xbda31eca	-0.07964857
106	0xbe193f4b	-0.1496555
107	0xbd4e7c0e	-0.050411277
108	0xbdaf51f2	-0.08560552
109	0xbdaf5cca	-0.0856262
110	0xbe493a71	-0.196512
111	0xbe06c307	-0.13160335
112	0xbc9dc395	-0.0192583
113	0xbd3d18ba	-0.04616616
114	0xbdca782e	-0.09886204
115	0xbc861824	-0.016368933
116	0xbd494434	-0.04913731
117	0xbd8f049d	-0.06983302
118	0xbe50d3a5	-0.20393236
119	0xbe05b53e	-0.1305742
120	0xbd58c755	-0.052924473
121	0xbc4d1645	-0.0125175165
122	0xbc847aea	-0.016171891
123	0x3d8962f8	0.0670833
124	0x3c99ae93	0.018760001
125	0x3cd44391	0.025911124
126	0xbe25c449	-0.16188158
127	0x3e820cbd	0.25400344
128	0x3e19f766	0.15035781
129	0x3d52cda6	0.051465653
130	0x3e6c222a	0.23059908
131	0x3d06e4a9	0.03293291
132	0x3c2b4d18	0.010455392
133	0xbda1ec16	-0.07906358
134	0x3d71405e	0.058899276
135	0x3d841a8b	0.06450375
136	0xbd9ef0fd	-0.077608086
137	0x3d74df2b	0.059783142
138	0xbe2ee6f6	-0.17080292
139	0x3d91a780	0.07112026
140	0x3dba2272	0.09088601
141	0xbc6bbdb2	-0.014388489
142	0xbd6daed3	-0.058028053
143	0x3da8db76	0.08244984
144	0x3d500507	0.050786044
145	0xbc950b43	-0.018193847
146	0x3db5a70c	0.08869752
147	0xbe885af5	-0.26631895
148	0x3d8c8f6f	0.06863295
149	0x3d16b73c	0.03679584
150	0x3e5c72ea	0.21528211
151	0xbcaa344f	-0.020776896
152	0xbdcc9d46	-0.09990935
153	0xbe37959d	-0.17928167
154	0xbbb7b17d	-0.005605875
155	0xbcd70cca	-0.026251215
156	0x3b6064a1	0.0034239667
157	0xbe45c9b8	-0.19315231
158	0xbde38d19	-0.111108966
159	0xbd8126bb	-0.063062154
160	0xbdbc0847	-0.09181266
161	0xbda65537	-0.08121722
162	0x3e01b3e3	0.12666278
163	0xbe046225	-0.12928064
164	0x3d17ccca	0.037060536
165	0xbe05b9a0	-0.13059092
166	0x3e398018	0.1811527
167	0x3b4943e4	0.0030710632
168	0xbdb0ba03	-0.08629229
169	0xbdf21293	-0.11819949
170	0x3da63e67	0.08117371
171	0x3de137d8	0.109969795
172	0xbd12f4bc	-0.03587793
173	0x3d4f6da0	0.050641656
174	0x3e43ff42	0.19140342
175	0x3d991f2a	0.07476647
176	0xbcb069f1	-0.021534892
177	0x3b975e35	0.0046193847
178	0xbbd8f307	-0.006620768
179	0x3dd00fbd	0.10159252
180	0xbe179918	-0.14804494
181	0xbc8f0546	-0.01745857
182	0xbc65deee	-0.014030201
183	0xbd92e25b	-0.0717208
184	0x3cf540d3	0.029938137
185	0xbdb12bea	-0.08650954
186	0x3df9d6cf	0.121991746
187	0x3d6af5d1	0.057363335
188	0x3c8391b9	0.016060697
189	0xbe246ea0	-0.16057825
190	0xbdc6bae3	-0.097036146
191	0xbdf2b250	-0.11850417
192	0x3cfb5245	0.030678878
193	0xbe3ff249	-0.18744768
194	0xbe6251fb	-0.22101586
195	0x3d7a34d8	0.061085552
196	0x3e233d13	0.15941267
197	0x3df4990c	0.11943254
198	0xbe0b5cf4	-0.13609678
199	0x3ddcd3f1	0.10782612
200	0xbda3bb22	-0.07994677
201	0xbcc43a19	-0.023953484
202	0xbd964807	-0.07337957
203	0xbd241f14	-0.0400687
204	0xbd48a03f	-0.048980948
205	0x3e67b3bc	0.22627157
206	0xbd819f2a	-0.06329186
207	0x3d9033a2	0.07041098
208	0xbdccd6ae	-0.100018844
209	0x3dc44b03	0.0958462
210	0xbd9f4fb6	-0.077788755
211	0x3d720666	0.059088133
212	0xbd9c2d4a	-0.07625826
213	0xbe36c44b	-0.17848317
214	0xbe02cf93	-0.12774496
215	0xbdcfc69e	-0.10145305
216	0x3db81f3a	0.08990331
217	0x3e2128fa	0.15738288
218	0x3ea71238	0.32631087
219	0xbcfcf83b	-0.030880084
220	0xbd9f566f	-0.07780158
221	0xbbd0a058	-0.0063667707
222	0x3d96a070	0.0735482
223	0xbe05b607	-0.13057719
224	0xbdb52612	-0.08845152
225	0x3c3d02e1	0.011536331
226	0xbd450b83	-0.04810668
227	0x3d5a10fb	0.05323885
228	0x3ce1d601	0.027567865
229	0xbd77581f	-0.060386773
230	0x3da5040f	0.08057415
231	0xbd74b0d6	-0.059738956
232	0x3d662b7c	0.056193814
233	0x3d28b08c	0.041183993
234	0x3dbac3ee	0.09119402
235	0x3e04994b	0.12949102
236	0xbe12d8b8	-0.14340484
237	0x3cda429b	0.026643088
238	0xbc160866	-0.009157276
239	0xbda3c6c9	-0.079969
240	0xbcddc4d3	-0.027071392
241	0x3c073526	0.008252418
242	0x3d3ad08b	0.04560904
243	0xbc91ea6a	-0.017811973
244	0x3d9aeceb	0.0756472
245	0xbd6fa47d	-0.058506478
246	0xbe75beeb	-0.2399861
247	0xbe28f0f7	-0.16498171
248	0xbda5ce90	-0.08096039
249	0x3c5aafee	0.013347609
250	0x3dc3ebbf	0.095664494
251	0x3e2a57e6	0.16635093
252	0x3d89af22	0.06722857
253	0x3e072d05	0.13200767
254	0xbdf50826	-0.11964445
255	0x3e686326	0.22694072

transformer.layers.0.self_attn.in_proj_bias f4 [192]
0	0xbd67a5a1	-0.05655444
1	0xbdfb95eb	-0.12284454
2	0x3c9b35cd	0.018946553
3	0xbd3402c5	-0.043947954
4	0x3d74c56f	0.0597586
5	0xbcdbf651	-0.026850851
6	0xbd4e7f72	-0.05041451
7	0xbcf1d441	-0.029520156
8	0xbd75aeb7	-0.059981074
9	0xbc9ea270	-0.019364566
10	0x3ce9a807	0.028522504
11	0xbc8d4bc0	-0.017248034
12	0xbccdbb0b	-0.025113603
13	0x3d9be0f5	0.076112665
14	0xbd425540	-0.047444582
15	0xbcd67b99	-0.026181983
16	0x3d75784a	0.05992917
17	0x3d2504e6	0.040287875
18	0xbd6bd632	-0.05757732
19	0xbca97996	-0.02068786
20	0xbc85de25	-0.016341278
21	0x3d1966cd	0.037451554
22	0xbc710e6b	-0.01471291
23	0x3d7ff2c1	0.062487368
24	0xbd461cee	-0.048367433
25	0x3d8b7dcc	0.06811103
26	0xbd55cd05	-0.052197475
27	0x3d3394c0	0.04384303
28	0xbcd5f80a	-0.02611925
29	0xbd18807f	-0.03723192
30	0xbc2d1195	-0.010563274
31	0xbd6c015d	-0.057618488
32	0xbd233ebb	-0.039854746
33	0xbd26c027	-0.040710595
34	0xbd80f869	-0.062973805
35	0xbd9dbb08	-0.07701689
36	0xbcafae9c	-0.021445565
37	0x3d13db63	0.036097895
38	0xbc202793	-0.00977506
39	0x38e35d00	0.00010841526
40	0xbd67887a	-0.05652664
41	0xbc3e21d6	-0.011604747
42	0x3c2dfca4	0.010619316
43	0xbdb3ade8	-0.08773404
44	0xbd953e55	-0.072872795
45	0x3d3a471c	0.04547797
46	0xbbbe37c9	-0.00580499
47	0xbc8656f3	-0.016398882
48	0xbd9a488f	-0.07533371
49	0x3da2be38	0.079464376
50	0xbd2c20aa	-0.04202334
51	0xbccd0e55	-0.025031248
52	0xbcb958bd	-0.022625322
53	0xbc39d7a7	-0.011342919
54	0x3d846dd1	0.06466258
55	0xbcda3b40	-0.02663958
56	0x3d1a6dae	0.037702255
57	0xbccfa407	-0.025346769
58	0xbd7b157f	-0.061299797
59	0x3d64eedf	0.055891868
60	0x3da48f16	0.08035104
61	0x3c9a9f8e	0.01887491
62	0x399fa502	0.00030449784
63	0xbb048e1c	-0.0020226305
64	0x391af80e	0.00014778992
65	0xb9094352	-0.00013090417
66	0x398487e4	0.00025278248
67	0xb80a6ded	-3.300414e-05
68	0x390259e6	0.00012431256
69	0x3888cc81	6.523077e-05
70	0xb930bdd5	-0.00016855386
71	0x38fa233a	0.000119274904
72	0xb88ed9ad	-6.811633e-05
73	0xb8f1d14c	-0.0001153076
74	0x3961751f	0.00021501303
75	0xb82f857c	-4.184757e-05
76	0x38ec28ab	0.00011260932
77	0x393b8999	0.00017884969
78	0x3901e9cd	0.00012389496
79	0x3920167b	0.00015267164
80	0x3786c6ef	1.606668e-05
81	0x38c01f87	9.161146e-05
82	0xb7d61ff0	-2.552566e-05
83	0x3775f2bc	1.4659654e-05
84	0xb88b527e	-6.643402e-05
85	0x38aecf3b	8.335566e-05
86	0xb784c1b3	-1.5825824e-05
87	0x35a7507a	1.2465891e-06
88	0xb7aefe79	-2.0860914e-05
89	0x37e852a9	2.7695047e-05
90	0xb6a723dc	-4.9811624e-06
91	0xb800abed	-3.0677696e-05
92	0xb663b77c	-3.3932438e-06
93	0xb8b2afc4	-8.52044e-05
94	0x37b543ab	2.1608392e-05
95	0xb799b2d9	-1.8322304e-05
96	0x39599165	0.00020748896
97	0x3a02199b	0.0004962922
98	0x3829af1a	4.0455816e-05
99	0x3965f60f	0.00021930806
100	0xb8364783	-4.3458782e-05
101	0x3877e4b9	5.9102404e-05
102	0xb7200d6e	-9.53987e-06
103	0xb8ffcd0d	-0.00012197541
104	0x3959e650	0.00020780531
105	0xb7faacae	-2.9882733e-05
106	0x39029cca	0.00012456175
107	0x3988dab9	0.00026102902
108	0x39a63a50	0.00031705434
109	0xb9a1e00c	-0.0003087524
110	0xb8c2df6f	-9.2922586e-05
111	0x39596c67	0.00020735116
112	0x392e1a1f	0.00016603664
113	0xb953687e	-0.00020161454
114	0x387f8c06	6.0927145e-05
115	0x3980f736	0.0002459825
116	0x3923117f	0.00015551409
117	0xb8a2f81e	-7.7709774e-05
118	0x36f82b9b	7.3960523e-06
119	0xb938e1a9	-0.00017631672
120	0x3700f12a	7.685545e-06
121	0xb821eef6	-3.860794e-05
122	0x398054d5	0.00024477267
123	0x3825380f	3.9391274e-05
124	0xb9d49d19	-0.00040552838
125	0xb88870cf	-6.5059976e-05
126	0xb93df0e2	-0.0001811418
127	0x38f7c94a	0.00011815371
128	0x3c05d030	0.008167312
129	0x3c2335d2	0.009961562
130	0xbb7e7120	-0.0038824752
131	0x3ca93d3d	0.020659084
132	0xbcb3334a	-0.021875042
133	0xbc06641a	-0.008202577
134	0x3b4bde93	0.0031108006
135	0x3cc35adf	0.023847042
136	0x3b09d55d	0.0021031715
137	0x3c214568	0.009843208
138	0xbbf3a150	-0.0074350014
139	0x3c2040a0	0.009781033
140	0xbc134dbf	-0.008990704
141	0xb84e05c0	-4.9119582e-05
142	0xbc0fe31b	-0.0087821735
143	0xbc6c5262	-0.0144239385
144	0xbc9cb996	-0.019131463
145	0xbb97e96e	-0.0046359813
146	0x3c196f12	0.00936486
147	0x3cae01a6	0.02124102
148	0xbc67fa7b	-0.01415884
149	0xbabe9dfe	-0.0014542935
150	0x3c017baf	0.007903024
151	0xbc8adf64	-0.016952224
152	0x3c08f928	0.008360185
153	0x3ca725b3	0.020403719
154	0xbc338166	-0.010956144
155	0xbaa3f09d	-0.0012507621
156	0x3bf24985	0.007394018
157	0xbbbae2b9	-0.005703297
158	0xbb87dc38	-0.004146125
159	0xbb9e3825	-0.0048284703
160	0x3bac454e	0.005257285
161	0x3cb1adc5	0.021689305
162	0x3c5fb8cf	0.013654902
163	0x3caad651	0.020854147
164	0xbac2bc67	-0.0014857174
165	0x3ca20569	0.01977797
166	0x39969b0d	0.0002872575
167	0x3c8ab904	0.016933925
168	0x3a0c06db	0.0005341598
169	0x3bcafdec	0.0061948206
170	0x3bb80333	0.0056156158
171	0x3ba7e515	0.0051237443
172	0x3c504d4d	0.012713742
173	0xbb489c31	-0.0030610675
174	0x3bf37a97	0.0074303853
175	0x3c1f089a	0.009706641
176	0xba05a7ea	-0.00050985685
177	0xba813e13	-0.0009860419
178	0x3c248d05	0.010043387
179	0x3c06c7e8	0.008226372
180	0xbbb7d461	-0.0056100343
181	0x3c3c751d	0.011502531
182	0xbcab7003	-0.020927435
183	0x3af7c050	0.0018901918
184	0x3c0bebb1	0.00854008
185	0xbc6a64c5	-0.014306252
186	0xbad3371c	-0.0016114446
187	0xbc628283	-0.013825062
188	0x3b81acf7	0.0039573866
189	0xbc5eb584	-0.013593081
190	0xbb9a579a	-0.00471015
191	0xbb8cf142	-0.004301221

transformer.layers.0.self_attn.out_proj.weight f4 [64, 64]
0	0x3bf3e50a	0.007443075
1	0xbda0205e	-0.078186736
2	0x3d7290c4	0.05922009
3	0xbd6d1995	-0.057885725
4	0x3d679730	0.056540668
5	0x3ca7a3f3	0.02046392
6	0xbd8d0ea6	-0.068875596
7	0x3dea41ec	0.11438355
8	0xbd306aaf	-0.04307049
9	0xbcc909c6	-0.024540793
10	0x3acfb55b	0.0015846895
11	0xbdb9b9a4	-0.09068611
12	0x3d31354e	0.043263726
13	0xbe06f716	-0.13180193
14	0xbd54a63b	-0.051916342
15	0xbbd53f1e	-0.0065077683
16	0xbd3671ba	-0.04454205
17	0xbdd8beb8	-0.10583252
18	0xbbb06e48	-0.0053842403
19	0x3bd8c385	0.0066151046
20	0xbda28cdd	-0.07937024
21	0xbcd1901e	-0.025581416
22	0x3dc5e848	0.09663445
23	0xbdfb1f16	-0.122617885
24	0xbd925303	-0.071447395
25	0xbdf7de9a	-0.12103005
26	0x3ba1845c	0.0049291085
27	0x3ddda1a9	0.1082185
28	0xbe00ce9e	-0.12578818
29	0xbde9c4f8	-0.11414522
30	0xbc4bf1b6	-0.012447765
31	0x3d61a72c	0.05509107
32	0x3ce17eaa	0.027526218
33	0x3d395c1b	0.045253854
34	0x3d4303f4	0.047611192
35	0xbdbf3dd8	-0.09337968
36	0xbd985f35	-0.07440034
37	0x3d371510	0.04469782
38	0x3dd366d3	0.103223465
39	0x3ddc8a94	0.10768619
40	0xbd491d76	-0.04910036
41	0x3c0bdb5f	0.008536189
42	0xbda75ae9	-0.081716366
43	0xbcb1f243	-0.021721965
44	0xbcb5ee50	-0.022208363
45	0x3c8d3d22	0.017241064
46	0x3c6b4093	0.014358657
47	0x3d71dce8	0.059048563
48	0xbd8d9687	-0.069134764
49	0x3dbc4124	0.09192112
50	0xba38dcaa	-0.00070519245
51	0x3dd0de44	0.10198644
52	0x3de6aa32	0.11262931
53	0x3d10a463	0.03531302
54	0x3df6d40d	0.12052164
55	0xbd1ebb4e	-0.038752846
56	0xbda5a8ca	-0.080888346
57	0xbc4b5864	-0.012411211
58	0x3be2dac7	0.006923053
59	0xbb094868	-0.0020947699
60	0x3d31f84e	0.043449692
61	0xbd844b12	-0.06459631
62	0x3d7ee1ff	0.062227245
63	0x3c8e35d8	0.01735966
64	0x3d97b64d	0.07407818
65	0x3cfaf8b7	0.030636175
66	0xbe02d316	-0.12775835
67	0xbe02b463	-0.12764125
68	0xbd95bf49	-0.073118754
69	0x3db8c1f7	0.09021371
70	0x3d96db3f	0.073660366
71	0x3deb298b	0.11482533
72	0xbdcb4da3	-0.099269174
73	0x3d60a76d	0.05484717
74	0xbe04a8d8	-0.12955034
75	0x3ba35166	0.0049840687
76	0x3dd122d3	0.1021172
77	0x3e122e69	0.14275517
78	0xbd165e08	-0.03671077
79	0xbc42736a	-0.011868337
80	0x3df0e0cb	0.11761626
81	0x3dc1e30f	0.09467136
82	0x3c7e7425	0.015530621
83	0x3d992240	0.07477236
84	0xbc177b3d	-0.009245691
85	0x3cc07b4c	0.023496293
86	0xbcd13d78	-0.025542006
87	0x3c767bdd	0.01504418
88	0xbd43d69b	-0.047812086
89	0x3cbcf5a8	0.023066357
90	0x3ce5a7fa	0.028034199
91	0x3c55d057	0.01305016
92	0x3dac09d0	0.08400309
93	0x3dcda479	0.10041136
94	0x3d529c91	0.051418845
95	0xbd5e69dd	-0.054300178
96	0x3cd9cf15	0.026588002
97	0xbda8af82	-0.082366005
98	0x3de16c92	0.11007036
99	0x3dd84aec	0.10561165
100	0x3d7788f3	0.06043334
101	0xbddd74ba	-0.108132794
102	0x3dd33011	0.10311902
103	0xbdc36864	-0.09541395
104	0xba2590da	-0.0006315835
105	0x3d86e8ed	0.06587396
106	0xbd31aee4	-0.04337968
107	0x3dff43fa	0.124641374
108	0x3dcc2bd8	0.099693
109	0x3dbaa3cc	0.09113273
110	0x3d7c1337	0.061541762
111	0xbcb64cf6	-0.022253495
112	0xbde93724	-0.1138747
113	0xbdd38090	-0.10327256
114	0xbcc17073	-0.02361319
115	0xbd139230	-0.036028087
116	0x3d99eeb7	0.07516234
117	0xbda24957	-0.07924145
118	0xbd95066c	-0.072766155
119	0x3deaa22d	0.11456714
120	0x3d94d879	0.072678514
121	0x3dd0e99c	0.102008075
122	0x3d9d00f7	0.076662
123	0x3d9be5ec	0.076122135
124	0x3d8dceff	0.06924247
125	0x3d1878cf	0.037224587
126	0xbc82232b	-0.01588591
127	0xbd8e07b6	-0.069350645
128	0x3d84669e	0.06464885
129	0x3d92ca5a	0.07167502
130	0xbdc4aaae	-0.09602867
131	0x3dcd8e92	0.10036959
132	0x3cef0e01	0.029181482
133	0x3d8268da	0.06367655
134	0x3e03932a	0.12849107
135	0xbdbf855f	-0.093516104
136	0x3d6a1bf1	0.057155553
137	0xbd3de8dc	-0.04636465
138	0xbb3e7830	-0.0029063337
139	0x3d814b9a	0.06313248
140	0xbd239e4c	-0.039945886
141	0x3df56a06	0.11983113
142	0xbccdd49b	-0.025125792
143	0x3d8cd398	0.06876296
144	0xbd952555	-0.07282511
145	0xbd2d6a9c	-0.042338
146	0xbd3ab85e	-0.045585983
147	0xbd96f041	-0.073700435
148	0xbd727887	-0.059196975
149	0x3d9bd27a	0.076085046
150	0xbd6d03fa	-0.05786512
151	0xbd37ccfc	-0.044873223
152	0xbdb25b7b	-0.08708855
153	0x3d5b3f6a	0.053527273
154	0x3dbb6ff9	0.091522165
155	0xbd147908	-0.036248237
156	0xbd15de2a	-0.036588825
157	0xbdf937ca	-0.12168844
158	0xbcdefad3	-0.027219212
159	0x3cb64aea	0.022252519
160	0x3d13279b	0.035926443
161	0xbd25b07e	-0.04045152
162	0x3d5fc6a4	0.054632798
163	0x3da30c48	0.07961327
164	0x3deee50f	0.11664783
165	0xbd310e0d	-0.04322629
166	0x3dde111d	0.10843108
167	0x3d9e6fd1	0.07736171
168	0x3d333514	0.04375179
169	0x3cec0a7a	0.02881359
170	0x3d5243af	0.05133408
171	0x3d9e0744	0.077162296
172	0xbdad6d67	-0.084681325
173	0x3d6cea33	0.057840537
174	0x3d375e3e	0.04476761
175	0xbc9a4f7b	-0.018836727
176	0xbba758f6	-0.0051070405
177	0x3d0d2429	0.034458313
178	0x3dc6dd5f	0.09710192
179	0xbcbb1f32	-0.022842024
180	0x3dafb398	0.08579177
181	0xbe0ae4ea	-0.13563886
182	0xbdaf0f82	-0.0854788
183	0xbdb7e7a0	-0.08979726
184	0x3c07ee3f	0.008296548
185	0x3ba2c9c8	0.004967902
186	0xbda37702	-0.07981683
187	0x3d804d32	0.06264724
188	0xbd837c65	-0.06420211
189	0xbc632cb6	-0.01386564
190	0x3da2d099	0.07949943
191	0x3cf7932f	0.03022155
192	0xbe07b184	-0.1325131
193	0x3dd749c9	0.1051212
194	0xbdcb2221	-0.09918619
195	0x3dad6502	0.08466531
196	0x3ddec5f9	0.10877604
197	0xbd0095de	-0.031392924
198	0xbd11be65	-0.035581965
199	0x3dfbfcbb	0.12304064
200	0x3d71a901	0.058999065
201	0x3d4d241b	0.05008326
202	0xbe0360e0	-0.12829924
203	0xbd81c490	-0.063363194
204	0x3b025239	0.0019885434
205	0xbdd4fa41	-0.10399295
206	0xbd2bd095	-0.041946966
207	0xbdab6369	-0.0836857
208	0xbdbae51e	-0.09125732
209	0xba42a472	-0.0007425017
210	0x3d161531	0.036641303
211	0x3df7e6ec	0.12104592
212	0x3d5ae9e3	0.053445708
213	0x3d82b036	0.06381266
214	0x3de7b377	0.11313527
215	0xbdcd1714	-0.100141674
216	0x3e0e6398	0.1390518
217	0x3e12b754	0.14327747
218	0x3c7e0485	0.015504007
219	0x3d4c41c5	0.04986741
220	0xbe1a6558	-0.15077722
221	0x3dd85821	0.10563684
222	0x3d3971ff	0.04527473
223	0x3d97d4a1	0.074136026
224	0x3c77b7db	0.015119518
225	0x3e148f73	0.14507847
226	0x3d647b97	0.055781927
227	0x3dc8b197	0.097994976
228	0xbdde2bc5	-0.10848192
229	0x3d67fec3	0.056639444
230	0x3d4e576b	0.050376337
231	0x3de14e0c	0.110012144
232	0xbd79fd9a	-0.06103287
233	0x3db76bde	0.08956121
234	0x3c5f0ca5	0.013613855
235	0xbdc6679b	-0.0968773
236	0x3dbe0d3b	0.09279867
237	0x3b94036e	0.0045170104
238	0x3d776042	0.060394533
239	0xbe0cf7e4	-0.13766438
240	0xbdc775bd	-0.09739254
241	0xbd179dbc	-0.03701566
242	0x3d957120	0.072969675
243	0x3e00b1ae	0.1256778
244	0x3dc16974	0.09443942
245	0xbdaa9cc7	-0.08330684
246	0xbdc40165	-0.095705785
247	0xbd2a4e36	-0.041578494
248	0xbdb4b4b1	-0.08823527
249	0x3daf84bc	0.08570239
250	0x3d112403	0.035434734
251	0xbca293ab	-0.019845804
252	0xbd974138	-0.07385486
253	0xbcc24bb5	-0.02371774
254	0xbe05727f	-0.13031958
255	0xbdd855ac	-0.105632156

transformer.layers.0.self_attn.out_proj.bias f4 [64]
0	0x3cd9295c	0.02650898
1	0x3c7fa64c	0.015603613
2	0x3c3cdca2	0.011527212
3	0x3a580d4e	0.00082417286
4	0x3ae36300	0.001734823
5	0xbbf1a6e7	-0.0073746326
6	0x3cd4240c	0.025896095
7	0x3c85a32f	0.016313164
8	0x3c6d228e	0.0144735705
9	0x3a65e776	0.0008770147
10	0xbd02e9d0	-0.031961262
11	0x3ccba1fa	0.02485751
12	0xbd15275b	-0.036414485
13	0xbc693749	-0.014234372
14	0xbce9885a	-0.0285074
15	0xbbb74053	-0.005592385
16	0xbc3c5399	-0.011494541
17	0x3b418b3f	0.002953246
18	0xbd094a8c	-0.03351836
19	0x3c02b404	0.007977489
20	0x3d004cad	0.031323124
21	0x3b97de19	0.0046346304
22	0x3c88b23f	0.016686557
23	0xbd191921	-0.03737748
24	0xbccc8c2b	-0.024969181
25	0x3c43e773	0.011957037
26	0xbbbf5c3b	-0.005839852
27	0xbc820bfc	-0.015874855
28	0xbba7b2d4	-0.0051177535
29	0x3c821e5e	0.01588362
30	0x3cacb981	0.021084549
31	0xbbd52891	-0.00650508
32	0xbca6228e	-0.020280149
33	0x3c6e8621	0.014558346
34	0xbca3908b	-0.019966384
35	0x3c088c49	0.008334228
36	0x3a5ca3b1	0.0008416726
37	0x3b5edf0c	0.0034007458
38	0xbceafcf6	-0.028685074
39	0x3cff3a84	0.031155832
40	0xbc9fda3e	-0.019513246
41	0x3ce10e28	0.02747257
42	0x3ba0e71b	0.0049103624
43	0xbcb27a64	-0.021786876
44	0x3beaad47	0.0071617696
45	0xbc16db98	-0.009207629
46	0x3c684088	0.014175542
47	0x3d36a214	0.044588163
48	0xbb7ed887	-0.0038886385
49	0x3c45d4ba	0.012074644
50	0x3d13bc9a	0.036068536
51	0x3c5556b4	0.01302116
52	0x3bb51020	0.005525604
53	0xbc5a2a66	-0.013315773
54	0x3b61e07f	0.0034466085
55	0xbbb270bd	-0.0054455684
56	0xbd1f853a	-0.038945414
57	0x3c1f3a2b	0.009718458
58	0xbcd387f1	-0.025821658
59	0xbbc7314b	-0.006078874
60	0xbcbd7d8b	-0.023131153
61	0x3c72cffc	0.014820095
62	0xbc3472e6	-0.011013722
63	0xbc9e753c	-0.019343011

transformer.layers.0.linear1.weight f4 [128, 64]
0	0x3cd25a7a	0.025677908
1	0xbdffd268	-0.12491304
2	0x3c9e8ae8	0.019353345
3	0xbd737586	-0.05943825
4	0x3ca3ff24	0.020019121
5	0x3e2e3ab8	0.17014587
6	0x3dcf0441	0.10108233
7	0xbd89d87d	-0.06730745
8	0x3ce72029	0.028213577
9	0x3d9311e3	0.07181146
10	0x3e238934	0.15970308
11	0x3d3530ad	0.044235874
12	0xbe18b3ae	-0.14912292
13	0xbd11326e	-0.035448484
14	0xbd8b3c99	-0.067986675
15	0x3e051a23	0.12998252
16	0x3dcd5afb	0.10027119
17	0xbdb16ef0	-0.08663738
18	0x3dce2016	0.10064714
19	0x3d99aa95	0.07503239
20	0xbd341b2a	-0.04397122
21	0xbd0e7b86	-0.03478577
22	0xbd7faeaa	-0.062422432
23	0x3b352846	0.0027642413
24	0x3a7b7ab4	0.00095931743
25	0xbbc41e04	-0.0059850235
26	0xbd9473c8	-0.07248646
27	0xbd34a1e5	-0.044099707
28	0xbdf8d80a	-0.12150581
29	0x3d0bf79d	0.03417169
30	0x3de95e31	0.11394919
31	0xbac24ba9	-0.0014823574
32	0x3d2135a4	0.039357796
33	0x3c969408	0.018381134
34	0x3d781c2f	0.060573753
35	0xbc0f944d	-0.008763385
36	0x3cad988c	0.021190904
37	0x3c4d38b7	0.012525729
38	0x3dc64775	0.09681598
39	0x3d9ab613	0.07554259
40	0xbd44789c	-0.047966585
41	0x3cbe71a8	0.023247555
42	0xbc9815dd	-0.018565113
43	0x3e228bb3	0.15873604
44	0xbd0fd0b5	-0.035111148
45	0xbcaeabfe	-0.021322247
46	0x3e099edd	0.13439508
47	0xbdeb8210	-0.11499417
48	0xbe13955a	-0.14412442
49	0xbd813853	-0.06309571
50	0x3da6da91	0.08147157
51	0xbc80fdca	-0.015746016
52	0x3db92a35	0.090412535
53	0xbd36f9a8	-0.044671685
54	0xbd60d2d8	-0.054888576
55	0xbe03ba26	-0.12863979
56	0x3d8ad41d	0.06778739
57	0x3ce38da3	0.027777499
58	0xbd21d367	-0.03950825
59	0xbdb36dc1	-0.08761168
60	0xbd7b026d	-0.06128161
61	0xbcd3a87d	-0.025837177
62	0xbdc0ed37	-0.09420245
63	0xbb4b236e	-0.003099646
64	0xbdf721c2	-0.12066986
65	0xbc92e468	-0.017931178
66	0x3d4edf51	0.05050594
67	0xbda54b93	-0.08071055
68	0xbd2294a7	-0.039692547
69	0xbccb0ffd	-0.024787897
70	0x3dbacc2e	0.091209754
71	0x3daf9c70	0.0857476
72	0xbd25c9f2	-0.040475793
73	0xbe0b282b	-0.13589542
74	0x3dd3fa5b	0.10350486
75	0x3e14655a	0.14491788
76	0xbd12c06f	-0.03582805
77	0xbcce3a3d	-0.025174255
78	0xbd376e93	-0.044783186
79	0xbd08dc09	-0.033412967
80	0xbe378dc9	-0.1792518
81	0x3dcfe680	0.10151386
82	0xbcb71a21	-0.022351326
83	0xbd898a2a	-0.06715806
84	0x3dc6cd5b	0.09707137
85	0xbcbc576d	-0.022990907
86	0x3dc6e95b	0.09712478
87	0xbdeab99c	-0.114611834
88	0xbb06ef46	-0.0020589395
89	0x3daa1a71	0.083058245
90	0x3bb6cc1a	0.00557853
91	0x3e09f858	0.13473642
92	0x3d5088af	0.0509116
93	0xbdbfff29	-0.0937484
94	0x3df75f0f	0.12078678
95	0x3d02fdb2	0.031980224
96	0x3dba2f66	0.09091072
97	0x3dbaeac9	0.09126813
98	0xbd778204	-0.060426727
99	0xbe4cb264	-0.19989926
100	0xbd977a6b	-0.07396396
101	0xbdb047d1	-0.08607448
102	0x3d79ae0c	0.060957
103	0x3dd46fd4	0.10372892
104	0x3dfea484	0.124337226
105	0xbcd6d1c4	-0.02622307
106	0xbdd9eb6e	-0.10640608
107	0xbdbce649	-0.09223611
108	0xbd331063	-0.0437168
109	0x3e0b431a	0.13599816
110	0x3d78d44f	0.06074935
111	0x3d81d21a	0.06338902
112	0xbd872f9c	-0.06600878
113	0xbd95e234	-0.073185354
114	0x3c92591e	0.01786476
115	0xbdaba733	-0.083815
116	0xbcf95d67	-0.030440046
117	0x3dc0eebd	0.09420536
118	0x3d7d8be6	0.061900996
119	0xbd05f2c0	-0.032702208
120	0xbd2a100c	-0.04151921
121	0x3dd384ae	0.10328041
122	0x3c24d779	0.010061138
123	0x3e163d89	0.14671911
124	0x3dedfa1e	0.11619972
125	0xbdb551b8	-0.08853477
126	0xbdd3d8bf	-0.103440754
127	0x3dcaff95	0.0991203
128	0xbd1b7858	-0.037956566
129	0xbe23a20a	-0.15979782
130	0xbd8810aa	-0.066438034
131	0x3df11066	0.11770706
132	0x3bdddf28	0.006770987
133	0x3c81344c	0.015772007
134	0x3ae2c498	0.0017301021
135	0xbdb4a520	-0.088205576
136	0x3bbda3f3	0.0057873665
137	0xbd866f53	-0.06564202
138	0x3e037f28	0.12841475
139	0x3d362399	0.044467542
140	0x3dcf40f2	0.10119809
141	0x3bd9ebd8	0.006650429
142	0x3c2979cf	0.010343983
143	0x3d7b8025	0.061401505
144	0xbd738d28	-0.05946079
145	0xbcd4d54d	-0.025980616
146	0x3db46a47	0.08809333
147	0xbd899048	-0.067169726
148	0xbdea2d89	-0.114344664
149	0xbe1f82a5	-0.1557718
150	0x3d50db0f	0.05099016
151	0x3d92ab0f	0.07161533
152	0x3d513c61	0.051082972
153	0xbca64b7e	-0.02029967
154	0x3cb00999	0.021488952
155	0x3ad4ebfc	0.0016244645
156	0x3d92e624	0.07172802
157	0xbdac37ef	-0.08409106
158	0x3ca78c58	0.020452663
159	0x3dc0f884	0.094224006
160	0x3d651c04	0.05593492
161	0xbc96b1d3	-0.01839534
162	0x3dc8f815	0.09812943
163	0x3d591861	0.053001765
164	0xbd4ca90c	-0.049965903
165	0x3deb3e25	0.114864625
166	0x3c004e2d	0.007831139
167	0x3cd43464	0.025903888
168	0xbdb47446	-0.0881124
169	0xbe30cb5f	-0.1726508
170	0xbdfc2874	-0.12312403
171	0xbd211548	-0.039326936
172	0x3db98f36	0.090605184
173	0xbd582532	-0.052769847
174	0xbd300ab4	-0.042978957
175	0xbde5c3b1	-0.11218966
176	0x3c0b539e	0.008503823
177	0xbdebc882	-0.11512853
178	0x3d8d1bc7	0.06890064
179	0x3d90b6ab	0.07066091
180	0x3d0c4963	0.034249675
181	0x3a804238	0.000978536
182	0xbdc88787	-0.09791475
183	0xbd05c6c0	-0.032660246
184	0x3e0aa9a1	0.13541271
185	0x3d9bcdda	0.076076224
186	0x3de60f5b	0.112333976
187	0xbd222be9	-0.039592657
188	0x3d49f69f	0.04930746
189	0xbcd5417f	-0.026032208
190	0x3dbdef9e	0.09274219
191	0xbdb8b0b0	-0.090180755
192	0x3abac2e3	0.0014248755
193	0xbcd31d38	-0.025770769
194	0x3daebbb1	0.08531893
195	0xbd665194	-0.056230143
196	0x3db902f8	0.09033769
197	0x3e23364d	0.15938683
198	0x3cf01963	0.02930898
199	0xbcef2cae	-0.02919611
200	0xbc49cb9a	-0.012316609
201	0x3c341c16	0.010993024
202	0x3dcc4ca2	0.09975554
203	0xbd5c9fe7	-0.053863432
204	0xbd37b9f6	-0.04485508
205	0x3ddcde89	0.10784633
206	0xbd856c03	-0.06514742
207	0xbcaa1a0a	-0.02076437
208	0xbddf84c5	-0.10913996
209	0xbc5f67c8	-0.013635583
210	0x3d8d250f	0.06891834
211	0xbcf4d985	-0.029888878
212	0x3da5b752	0.08091606
213	0xbe076eca	-0.13225856
214	0xbde0b3fd	-0.1097183
215	0x3d0266a0	0.031836152
216	0xbdad600f	-0.08465587
217	0x3d11817a	0.03552387
218	0x3de16f46	0.11007552
219	0xbc9b7e1b	-0.01898103
220	0xbcbe325a	-0.023217369
221	0xbdddda0a	-0.10832603
222	0xba87260c	-0.0010311021
223	0x3cf997c7	0.03046788
224	0x3cce03b0	0.025148243
225	0xbe13471c	-0.14382595
226	0x3ccb7ea8	0.024840668
227	0xbd63b2e4	-0.055590525
228	0x3e0d1fc3	0.13781647
229	0xbc72d7be	-0.014821945
230	0x3d0a4c77	0.03376433
231	0x3c7080ad	0.014679116
232	0x3de3bb23	0.11119678
233	0x3cdd7518	0.027033374
234	0xbc484cda	-0.012225354
235	0xbd850f6c	-0.06497082
236	0x3d9b6b10	0.0758878
237	0xbb72602a	-0.0036983588
238	0xbd9f90e4	-0.077913076
239	0x3d51f9f3	0.05126376
240	0xbdb3bee9	-0.087766476
241	0x3e01877c	0.1264934
242	0x3c93ffc0	0.018066287
243	0x3c902f2e	0.017600622
244	0x3dcdb8b7	0.10044997
245	0xbd2e70e5	-0.042588133
246	0x3d2df03b	0.04246543
247	0xbd39d613	-0.045370173
248	0x3ca6149b	0.020273497
249	0xbce6e753	-0.028186476
250	0xbc2c2f0b	-0.010509263
251	0x3de5d8e3	0.112230085
252	0x3de6102c	0.11233553
253	0x3db3add7	0.08773392
254	0x3d1aed1c	0.03782378
255	0x3d286e57	0.041120853

transformer.layers.0.linear1.bias f4 [128]
0	0xbddc3f33	-0.10754242
1	0x3d6b8388	0.057498485
2	0x3c0f2e42	0.008739056
3	0xbc39ec85	-0.011347895
4	0xbd94972d	-0.07255397
5	0xbdfe0297	-0.12402838
6	0x3c4785f7	0.012177936
7	0xbc088128	-0.0083315745
8	0x3d1afff1	0.03784174
9	0xbdab983c	-0.08378646
10	0xbe1ca68e	-0.1529791
11	0xbcfe29c5	-0.031025777
12	0xbd3fdfac	-0.04684417
13	0x3d86f73b	0.06590124
14	0x3cb4ed64	0.022085853
15	0x3d8b4e4f	0.068020456
16	0x3d920d7b	0.071314774
17	0x3d091150	0.033463776
18	0xbe00e65c	-0.12587875
19	0xbd5ae888	-0.053444415
20	0xbdb81c46	-0.08989768
21	0xbcda30b3	-0.02663455
22	0xbdc7fb90	-0.097647786
23	0xbcd39e1a	-0.025832225
24	0x3d5ffe0f	0.05468565
25	0xbd8ab292	-0.06772341
26	0xbd73d7c5	-0.059531946
27	0xbd3d2faa	-0.046188034
28	0x3dcdb5aa	0.10044415
29	0x3d704ab9	0.05866501
30	0xbdd25fd1	-0.10272182
31	0x3d874fd6	0.06607024
32	0xbd0bca3e	-0.03412842
33	0x3d98b0f3	0.074556254
34	0xbe04a246	-0.12952527
35	0xbbad8cbf	-0.0052963193
36	0x3d855ff2	0.06512441
37	0x3d0d2726	0.034461163
38	0x3c534702	0.012895348
39	0x3d031f51	0.032012288
40	0xbd906bef	-0.07051837
41	0x3d93c173	0.07214632
42	0x3d6b6e64	0.057478324
43	0x3d3d62ce	0.046236806
44	0xbdfd643a	-0.12372632
45	0x3c4a94ed	0.012364608
46	0x3d151d2f	0.036404785
47	0x3d48607f	0.04892015
48	0xbdc718a8	-0.097215
49	0xbbf55900	-0.0074874163
50	0x3d968819	0.07350177
51	0x3d0ba1bf	0.0340898
52	0xbde920fa	-0.11383243
53	0xbbfb5789	-0.007670347
54	0x3db176c3	0.0866523
55	0x3ba92a58	0.0051625185
56	0x3cc4956a	0.023997027
57	0xbc71ccbb	-0.014758284
58	0xbd53bb45	-0.051692266
59	0x3e092790	0.13393998
60	0xbde59b5d	-0.11211274
61	0x3db33cca	0.08751829
62	0x3dac093f	0.08400201
63	0xbda649ba	-0.08119531
64	0x3c0ef4fb	0.0087254
65	0xbe165b17	-0.14683186
66	0xbd37f6be	-0.044913046
67	0xbd34f582	-0.044179447
68	0x3e05a4fb	0.13051216
69	0xbe144161	-0.14478065
70	0x3d7746e1	0.06037033
71	0xbde2c5aa	-0.11072858
72	0xbd591933	-0.053002547
73	0x3dc340a5	0.09533814
74	0xbb2d8053	-0.0026474192
75	0xbcb38420	-0.021913588
76	0x3df3d08d	0.11905012
77	0x3d50d809	0.050987277
78	0x3d6eec99	0.058331106
79	0x3d1761c1	0.03695846
80	0xbdd89267	-0.10574799
81	0xbdb07586	-0.08616166
82	0xbd4aa7c3	-0.049476396
83	0xbe08941f	-0.13337754
84	0xbc8bccf3	-0.0170655
85	0x3d02d9ee	0.031946115
86	0x3d2adf9d	0.04171716
87	0x3daa2865	0.08308486
88	0xbd84ada9	-0.064784355
89	0xbdb79800	-0.089645386
90	0xbb8abec8	-0.0042341687
91	0x3d9f758c	0.07786092
92	0xbd43e478	-0.047825307
93	0xbd482a5a	-0.048868515
94	0xbd9d7c5c	-0.07689735
95	0xbe126d3d	-0.14299484
96	0x3da2affa	0.07943721
97	0x3d88e6c1	0.06684638
98	0x3cf6a18f	0.030106334
99	0x3d11a7d4	0.035560444
100	0xbd4f170d	-0.050559092
101	0x3be62a64	0.0070240963
102	0xbd84f236	-0.064915106
103	0xbd9a8498	-0.075448215
104	0xbdfb171d	-0.12260268
105	0xbca9e2b7	-0.020737989
106	0x3cff1f35	0.03114281
107	0xbd8a2a50	-0.06746352
108	0x3da26974	0.0793027
109	0xbd4faaca	-0.050699987
110	0xbe030b8b	-0.12797372
111	0xbce64c5e	-0.028112587
112	0xbc9b77cf	-0.018978028
113	0xbc4d5bc9	-0.01253409
114	0xbd979f79	-0.07403464
115	0xbc62d6fa	-0.0138452
116	0xbc8093bd	-0.015695447
117	0xbd609641	-0.054830793
118	0x3d96d485	0.07364754
119	0x3c38b267	0.011273003
120	0xbe059a6b	-0.13047187
121	0x3cea97b9	0.0286368
122	0xbd665688	-0.056234866
123	0x3d9702b4	0.073735625
124	0xbd4fee01	-0.050764088
125	0xbdb6f32d	-0.08933101
126	0xbd980171	-0.0742215
127	0xbd4c459e	-0.04987108

transformer.layers.0.linear2.weight f4 [64, 128]
0	0xbce7a452	-0.028276596
1	0xbd3618a1	-0.04445708
2	0x3cd2b761	0.025722208
3	0x3d86ff84	0.065917045
4	0xbd865d28	-0.06560737
5	0x3c9969e6	0.018727254
6	0x3d72f530	0.05931586
7	0x3db8a2e6	0.090154454
8	0x3cf2caf8	0.029637799
9	0xbb809f97	-0.0039252746
10	0x3d49ed46	0.049298547
11	0xbd6e33eb	-0.05815498
12	0x3da2bdb2	0.07946338
13	0x3ac711d2	0.0015187806
14	0x3cb3d1c0	0.021950603
15	0xbcb447d6	-0.02200691
16	0x3db780b8	0.08960098
17	0xbbff262b	-0.0077865324
18	0xbc4b3d8c	-0.012404811
19	0xbd55fa5f	-0.052240726
20	0xbd98e47a	-0.074654534
21	0x3dd1c2a6	0.10242204
22	0xbcf88ef0	-0.030341595
23	0x3cd21fd5	0.025649944
24	0x3b0c19f9	0.0021377786
25	0xbd3488be	-0.04407572
26	0x3daa7efc	0.083250016
27	0x3d236880	0.03989458
28	0xbd680326	-0.056643628
29	0xbdb7fa9a	-0.08983345
30	0xbdaa44d0	-0.08313906
31	0xbd152cac	-0.036419556
32	0xbcbd45d6	-0.02310459
33	0x3e12a3b3	0.14320259
34	0xbddf912f	-0.109163634
35	0x3d8ecf9b	0.06973191
36	0xbd804323	-0.06262805
37	0x3c4138cb	0.011793326
38	0xbda07ef4	-0.078367144
39	0x3dbbae62	0.0916412
40	0xbd92b5f0	-0.07163608
41	0xbd25bd52	-0.040463753
42	0x3d5e0290	0.054201663
43	0xbce2a58b	-0.027666828
44	0x3d5e3ff4	0.05426021
45	0x3d6a1443	0.05714823
46	0xbac51ff3	-0.0015039429
47	0x3db0c151	0.08630622
48	0xbb8e5be1	-0.004344449
49	0xbdb9e3d7	-0.0907666
50	0x3d967245	0.07346014
51	0xbdbdda24	-0.09270123
52	0xbd81ef8b	-0.06344517
53	0xbda417c9	-0.08012349
54	0xbdad583e	-0.084640965
55	0xbdfc946b	-0.12332996
56	0xbd497543	-0.049184095
57	0x3d3e74e2	0.046498187
58	0xbda23d07	-0.07921796
59	0xbd9adee2	-0.07562043
60	0xbd069c93	-0.032864165
61	0x3d8d45d5	0.06898085
62	0xbcd0bd8f	-0.025481014
63	0xba9b2900	-0.001183778
64	0x3d15165f	0.036398288
65	0x3db41e11	0.08794797
66	0x3c8e30d2	0.017357264
67	0xbcde7152	-0.027153645
68	0x3aa06d4d	0.0012239605
69	0xbdac08db	-0.084001265
70	0x3c7f148c	0.015568864
71	0xbddab9d7	-0.106799774
72	0xbdb95458	-0.090492904
73	0x3d1c4ee2	0.038161166
74	0xbd8a8c67	-0.06765061
75	0x3ce198ce	0.027538683
76	0xbd7f8949	-0.062386785
77	0xbdc2d041	-0.095123775
78	0xbb44ea5a	-0.003004691
79	0x3da1288d	0.078690626
80	0xbb408078	-0.0029373448
81	0x3c0b4d32	0.0085022915
82	0xbd101999	-0.03518066
83	0x3dbf7aa9	0.093495674
84	0x3d45b016	0.04826363
85	0xbc41f4e6	-0.0118381735
86	0xbc5efe8d	-0.013610494
87	0x3d9e021d	0.07715247
88	0xbd7e6cff	-0.062115666
89	0xbd1e9b69	-0.03872243
90	0xbd25106b	-0.04029886
91	0x3d4e101b	0.050308328
92	0xbc500eef	-0.012698873
93	0xbe075144	-0.13214594
94	0x3a32bafd	0.00068180246
95	0xbddeb20e	-0.10873805
96	0x3d33e97e	0.043923847
97	0x3dd3c6ea	0.10340674
98	0x3daf3f7f	0.08557033
99	0x3bdbcbb2	0.006707632
100	0x3da4a007	0.08038335
101	0xbc95a54b	-0.018267294
102	0x3d8cda5a	0.06877585
103	0x3ddb8281	0.10718251
104	0xbc122c35	-0.008921673
105	0xbcd32853	-0.025776064
106	0xbde390bf	-0.111115925
107	0x3d5bdf7e	0.053679936
108	0x3dad25e2	0.08454491
109	0x3c1a479c	0.009416487
110	0x3d537342	0.05162359
111	0xbd6c5a8a	-0.057703532
112	0x3dbfe19e	0.09369205
113	0x3d147e01	0.03625298
114	0x3c607bc9	0.013701388
115	0x3d4e2cc6	0.050335668
116	0xbdaaefe2	-0.08346535
117	0xbd266ea7	-0.04063287
118	0x3d63403c	0.05548118
119	0xbdd74676	-0.10511486
120	0x3b42a7aa	0.0029701986
121	0x3de5e8ee	0.112260684
122	0xbcc88a67	-0.024480058
123	0xbd037699	-0.032095525
124	0x3de79670	0.113079906
125	0x3ccd9ec7	0.025100125
126	0x3ce0a5b7	0.027422769
127	0xbd5f20e8	-0.05447474
128	0xbc5b2059	-0.0133744115
129	0xbd3159ac	-0.04329841
130	0xbc4bc22d	-0.012436432
131	0xbd93c971	-0.07216156
132	0xbdaddaa9	-0.08488972
133	0xbd09b949	-0.033623967
134	0x3d192ae2	0.03739441
135	0xbda13b0d	-0.07872591
136	0x3d8ee0fa	0.069765046
137	0xbdeaa435	-0.11457101
138	0x3d9665cd	0.07343636
139	0x3b8a10ab	0.0042134128
140	0x3d546b0b	0.051859897
141	0x3da26b72	0.0793065
142	0xbc951eb2	-0.018203113
143	0x3d7ded3e	0.06199383
144	0x3d0cdf7d	0.034392823
145	0x3d29d913	0.041466784
146	0x3d60a28a	0.05484251
147	0x3d95609c	0.072938174
148	0xbd8ca871	-0.06868065
149	0x3b54240e	0.0032370123
150	0xbcae91b2	-0.021309707
151	0x3c766ed3	0.015041071
152	0xbd71164d	-0.05885916
153	0xbd64b2e3	-0.055834662
154	0xbcdbe7f7	-0.026844008
155	0xbd2ce1d7	-0.042207565
156	0x3d84d92a	0.06486733
157	0x3caa1bc3	0.020765191
158	0x3cb72081	0.022354366
159	0xbccb42f5	-0.024812201
160	0xbc18cd21	-0.00932625
161	0xbc29fef6	-0.010375729
162	0x3da3cb42	0.07997753
163	0xbc4c29c9	-0.012461134
164	0xbd933326	-0.0718749
165	0xbc89cb8a	-0.016820688
166	0x3d0943ee	0.03351205
167	0x3d8976e9	0.067121334
168	0xbc9c89b7	-0.019108636
169	0xbd8e383e	-0.06944321
170	0x3d7a7c5a	0.061153747
171	0x3d2be65b	0.04196773
172	0x3d373258	0.044725746
173	0x3da0d448	0.078529894
174	0xbce9ec48	-0.02855505
175	0xbd57fbab	-0.052730244
176	0x3c99bb93	0.0187662
177	0x3ccf69a4	0.025318928
178	0xbc277ebf	-0.01022309
179	0xbdcaaaf0	-0.09895885
180	0xbd404a65	-0.04694595
181	0x3bd0bae5	0.006369936
182	0xbda4c090	-0.08044541
183	0x3cf7367f	0.030177353
184	0xbdbcb9a0	-0.09215093
185	0xbc91476c	-0.017734252
186	0x3c69cf5d	0.014270631
187	0xbd8b30f7	-0.06796449
188	0xbd66f9fd	-0.05639075
189	0xbc97600b	-0.018478414
190	0x3da7a79c	0.08186266
191	0xbd55d3a0	-0.052203774
192	0xbdaa9394	-0.083289295
193	0xba9820bd	-0.0011606436
194	0xbda8e546	-0.082468554
195	0xbd038448	-0.032108575
196	0x3dee934e	0.1164919
197	0x3d0362bb	0.03207658
198	0x3d30b899	0.043144796
199	0xbdbc449c	-0.09192774
200	0xbcb6e1da	-0.022324491
201	0x3c0e17d3	0.008672672
202	0x3d19c001	0.037536625
203	0xbd85dc43	-0.06536152
204	0xbcdf4a62	-0.027257148
205	0xbd0a78f2	-0.03380675
206	0x3d93d852	0.07218994
207	0xbcf736a9	-0.030177431
208	0x3d5dd990	0.054162562
209	0xbc8fd64c	-0.01755824
210	0x3d589665	0.052877802
211	0xbcfbb0aa	-0.030723888
212	0x3d92c979	0.07167334
213	0x3db11fa8	0.08648616
214	0x3d24c378	0.040225476
215	0x3cc2520a	0.02372076
216	0xbc0397f2	-0.008031832
217	0xbd8617d1	-0.06547511
218	0xbdaaf039	-0.083466
219	0x3cb8c4e6	0.022554826
220	0x3d89d5c4	0.06730226
221	0xbd9cd62e	-0.07658039
222	0x3ce61289	0.02808501
223	0xbdb85aac	-0.09001669
224	0x3d0f1c42	0.034939058
225	0xbd4f9cf3	-0.050686788
226	0xbd9d0291	-0.07666505
227	0xbdceae3b	-0.100918256
228	0xbd22c35d	-0.039737094
229	0x3d4e5481	0.050373558
230	0x3c1e8da9	0.009677329
231	0xbcbb51dd	-0.022866184
232	0xbd6ac271	-0.05731434
233	0xbdae11fd	-0.08499525
234	0x3d2cd40f	0.042194422
235	0xbd072b19	-0.033000086
236	0x3bca1fdc	0.0061683487
237	0x3cbb678b	0.022876522
238	0x3d85f71a	0.065412715
239	0xbd1d4775	-0.038398225
240	0x3dad6065	0.084656514
241	0xbb5a5153	-0.0033312633
242	0x3da214c6	0.079141185
243	0x3d66f596	0.056386553
244	0xbd0cf6f2	-0.034415193
245	0x3d25af62	0.04045046
246	0xbd01b43d	-0.03166603
247	0x3d7ee8ad	0.062233616
248	0xbda691dd	-0.0813329
249	0x3d86eb6d	0.06587873
250	0xbca03d28	-0.019560412
251	0xbdcb9fdc	-0.099426
252	0x3c992f56	0.01869933
253	0x3d83f791	0.06443704
254	0x3cf36eae	0.029715862
255	0x3cfa85dd	0.03058141

transformer.layers.0.linear2.bias f4 [64]
0	0xbd657a50	-0.05602485
1	0x3ba32b4c	0.0049795266
2	0xbc252bb9	-0.010081225
3	0xbd80e21a	-0.062931255
4	0xbd93637d	-0.0719671
5	0x3da4ee2a	0.08053239
6	0x3d8aa7d3	0.06770291
7	0x3d553069	0.05204812
8	0xbd87f1e8	-0.06637937
9	0xbd8a5fac	-0.06756529
10	0xbd8e36cc	-0.069440454
11	0xbdba4e71	-0.09096993
12	0xbcc57081	-0.024101498
13	0x3b845f68	0.0040396936
14	0x3d9b1cec	0.07573876
15	0x3b826088	0.0039787926
16	0x38fce674	0.000120592216
17	0x3d284e35	0.04109021
18	0xbd6baf2d	-0.057540108
19	0x3d54797a	0.05187366
20	0x3cb8bb6a	0.022550303
21	0x3ce3a45f	0.02778834
22	0x3bbee920	0.0058261305
23	0xbd8e4505	-0.06946758
24	0x3d80a8e0	0.0628221
25	0xbc17415e	-0.009231893
26	0xbd26ed60	-0.040753722
27	0xbd65fcce	-0.056149296
28	0xbbf7595f	-0.0075484957
29	0x3d8b3b8d	0.06798468
30	0xbb4853bc	-0.0030567488
31	0x3d6f67db	0.058448654
32	0x3cfafe5c	0.030638866
33	0xbd8a188e	-0.06742965
34	0x3ca2a4f2	0.019854043
35	0xbd669365	-0.05629291
36	0x3d9f32a8	0.07773334
37	0xbcb10b4b	-0.02161183
38	0x3d6587e5	0.056037802
39	0xbd56fbdf	-0.052486297
40	0x3d38fe25	0.045164246
41	0x3c848b04	0.016179569
42	0x3dbf43d3	0.09339108
43	0xbd836045	-0.06414846
44	0xbc822b5f	-0.015889822
45	0x3d7204ae	0.059086494
46	0x3dd263c7	0.10272937
47	0x3a5bf953	0.0008391339
48	0x3b93f056	0.0045147343
49	0x3ce83a5d	0.028348142
50	0xbd4fe481	-0.050755028
51	0x3d070963	0.032967936
52	0x3cea2d5a	0.028586078
53	0x3ccbbc11	0.02486995
54	0x3d869704	0.06571773
55	0x3d83bf85	0.06433014
56	0x3dab9f7a	0.08380027
57	0xbd4bef4c	-0.04978876
58	0xbc672cde	-0.014109818
59	0x39d055d7	0.00039736807
60	0xbd958924	-0.07301548
61	0xbc6ee2bb	-0.014580424
62	0x3c5bb386	0.013409501
63	0xbc83b92d	-0.01607951

transformer.layers.0.norm1.weight f4 [64]
0	0x3f8234ab	1.0172323
1	0x3f7fc1b1	0.99904925
2	0x3f816ba4	1.0110974
3	0x3f755c31	0.958438
4	0x3f80a971	1.005171
5	0x3f7fc931	0.9991637
6	0x3f85fb79	1.0467368
7	0x3f84de2f	1.0380305
8	0x3f7f7c22	0.99798787
9	0x3f794177	0.97365516
10	0x3f808066	1.0039184
11	0x3f805ddb	1.0028642
12	0x3f71dfa0	0.9448185
13	0x3f8648ac	1.0490928
14	0x3f801689	1.0006877
15	0x3f7ab795	0.97936374
16	0x3f8094fa	1.0045464
17	0x3f816e36	1.0111759
18	0x3f868bcf	1.0511416
19	0x3f84ae2d	1.0365654
20	0x3f78ae05	0.9714053
21	0x3f84163f	1.0319289
22	0x3f81bec7	1.0136346
23	0x3f7c0361	0.98442656
24	0x3f7ef620	0.99594307
25	0x3f80d7f1	1.00659
26	0x3f785fef	0.97021383
27	0x3f8532df	1.040615
28	0x3f785645	0.97006637
29	0x3f7b549a	0.98175967
30	0x3f817bba	1.0115883
31	0x3f81f399	1.0152465
32	0x3f7a1b15	0.97697574
33	0x3f800ef0	1.0004559
34	0x3f83cae3	1.0296291
35	0x3f800eef	1.0004557
36	0x3f816673	1.010939
37	0x3f7ffdd5	0.9999669
38	0x3f7883b5	0.9707597
39	0x3f861598	1.047534
40	0x3f7e3d7d	0.99312574
41	0x3f7f9b10	0.9984598
42	0x3f7dfbf6	0.99212587
43	0x3f81cdb9	1.0140907
44	0x3f7d4c08	0.9894414
45	0x3f81ceef	1.0141276
46	0x3f89ac9c	1.0755801
47	0x3f878e57	1.0590314
48	0x3f7783fe	0.9668578
49	0x3f7ff11d	0.99977285
50	0x3f80d889	1.0066081
51	0x3f790334	0.9727051
52	0x3f79aa49	0.9752546
53	0x3f7bd619	0.9837356
54	0x3f7ee9dc	0.9957559
55	0x3f7d7130	0.99000835
56	0x3f72ddf0	0.948699
57	0x3f8624b7	1.0479954
58	0x3f88bf6c	1.0683417
59	0x3f801672	1.000685
60	0x3f7e9aec	0.9945514
61	0x3f80dcac	1.0067344
62	0x3f6ff304	0.9373019
63	0x3f815dde	1.0106771
